neuromorphic_rate_model.pth (torch, 18446 bytes, 8 tensors)

conv1.weight f4 [4, 1, 3, 3]
-0.16734701 0.33141017 -0.29882994 0.16373868 -0.36324805 -0.11204022 0.20280375 -0.09972014
-0.36675996 -0.2914263 0.13137656 -0.029093409 -0.18582046 -0.28056964 0.16195357 -0.044248287
0.2772649 0.12290779 -0.03977232 0.028311811 0.27374706 -0.11098464 0.28396565 0.097022474
0.21279384 0.31160143 0.28480792 0.35145313 0.21223581 0.35110533 -0.056027222 -0.03690185
0.23383619 0.21104163 0.17067412 0.13478525
00000000: 045d 2bbe 98ae a93e 3d00 99be 1dab 273e
00000010: a6fb b9be 5875 e5bd c9ab 4f3e 133a ccbd
00000020: f6c7 bbbe d435 95be 9487 063e 4d55 eebc
00000030: b847 3ebe d3a6 8fbe 28d7 253e b13d 35bd
00000040: aaf5 8d3e 14b7 fb3d 4de8 22bd 2cee e73c
00000050: 9328 8c3e ea4b e3bd f263 913e b8b3 c63d
00000060: a1e6 593e 398a 9f3e 58d2 913e aaf1 b33e
00000070: 5854 593e 14c4 b33e cd7c 65bd 6526 17bd
00000080: c172 6f3e 4c1b 583e 32c5 2e3e 2505 0a3e

conv1.bias f4 [4]
-0.17505246 -0.19454242 -0.18566464 -0.19934538
00000000: f440 33be 2136 47be df1e 3ebe 3221 4cbe

conv2.weight f4 [8, 4, 3, 3]
-0.13912797 0.07944673 0.07771663 0.13925964 0.026732346 0.14084691 -0.15598081 -0.12697914
-0.16259623 -0.15087178 -0.041419413 -0.1746986 0.0132038 -0.12840478 -0.15697272 -0.03121392
0.0713022 -0.0027958767 0.08306665 0.16261606 0.04047539 -0.02680651 0.14309153 0.06651666
0.18321444 -0.06202055 0.13873255 0.1131097 0.25962907 -0.018501364 0.16386668 -0.041898742
0.13041443 0.21536933 0.033485882 -0.03289755 -0.07670903 -0.1444994 -0.15198156 -0.13788472
-0.020104608 -0.1342423 -0.13401479 0.14425752 0.06740159 0.09124175 -0.106490225 -0.108216956
-0.13953018 -0.059415314 -0.14023726 0.052382395 0.06910956 0.09065773 -0.06647197 0.08337395
-0.04155756 -0.08213468 0.027517002 0.02833324 -0.18180306 -0.3079485 0.03674416 0.08755639
-0.13149714 -0.12416471 -0.14239366 -0.074529596 0.09320016 -0.10743695 -0.15254499 0.010256623
-0.000791351 -0.033178627 -0.10054221 0.1532726 0.14513062 -0.03240327 -0.078086495 -0.01277872
-0.06917018 0.15853448 0.12921347 0.009988683 -0.06929026 -0.11633606 -0.07351261 -0.09868569
0.04612957 0.11645282 0.002521018 0.026527733 0.2462646 -0.008088498 0.22785425 -0.0026355828
0.1463717 -0.024853118 0.18261465 0.16406381 0.25630856 0.2594344 0.17951243 0.14708993
0.2441846 -0.049094185 -0.034340613 0.19599469 -0.07340573 0.1282092 -0.093962535 0.16438842
0.12681022 -0.11857893 -0.09601685 0.082955465 0.061943494 0.121946774 0.08345083 0.16111602
-0.1441657 0.14643836 -0.16458215 -0.106947355 0.15270717 0.0011551811 -0.12990615 0.07705524
0.12685631 0.045119114 0.14615332 0.007489384 0.05985169 -0.09070882 0.07156723 -0.11321495
-0.1190293 -0.117297664 0.05497965 0.04933212 -0.16513962 -0.049264368 -0.12721105 0.008280599
-0.057408713 -0.07198572 -0.0015367866 0.16326576 0.08195752 -0.025216699 -0.05956968 -0.00037233037
-0.050280213 -0.10303736 -0.13887869 0.0015632508 -0.13901033 0.12895598 0.04696973 0.0037580372
0.12675568 -0.15262672 -0.08789553 0.17662318 -0.043682057 0.045489803 0.008234266 -0.028961048
-0.22411719 -0.23616464 0.020114403 0.033599418 -0.009917515 0.14205511 -0.14368424 0.12470042
0.1250072 -0.13657863 0.10105979 0.0013095627 0.037889183 -0.14719254 -0.020213526 -0.035781108
-0.11155479 -0.049365383 -0.10021403 -0.06399157 0.009484093 0.0103434175 -0.068144724 0.014643572
0.10910854 -0.08946941 -0.02650488 0.14477257 -0.11638569 0.08307431 0.093908474 0.02778938
0.14542581 0.19109136 0.08543923 0.029621065 0.18027352 0.2891503 0.06476418 -0.062430453
-0.011661366 0.038437333 0.019028047 0.19389585 0.25211754 0.045348965 -0.057775196 0.14262639
-0.091171846 0.049556356 -0.1364502 -0.03430947 -0.0267937 -0.1495249 -0.13889383 -0.06544884
-0.057902258 -0.020743204 -0.069014534 -0.037474025 0.058375705 -0.053095195 0.06418432 -0.13440125
0.05607495 -0.13787754 0.11295513 -0.017190184 -0.050791737 0.16330153 0.15182626 0.17598969
0.16258591 0.16234697 0.03181218 0.04439701 0.1351152 0.13468914 0.186851 -0.05980499
0.05721016 0.05967192 0.12749621 0.15977854 0.069777966 -0.1393404 -0.03554819 0.061994594
00000000: 9077 0ebe f8b4 a23d e629 9f3d 149a 0e3e
00000010: cbfd da3c 2c3a 103e 6fb9 1fbe d206 02be
00000020: a07f 26be 227e 1abe 67a7 29bd 31e4 32be
00000030: c054 583c 8b7c 03be 75bd 20be 56b4 ffbc
00000040: e306 923d 073b 37bb d91e aa3d d384 263e
00000050: 86c9 253d 5399 dbbc 9686 123e e339 883d
00000060: 919c 3b3e 4309 7ebd e80f 0e3e 0fa6 e73d
00000070: 1aee 843e 2c90 97bc abcc 273e 049e 2bbd
00000080: 5c8b 053e c789 5c3e 7e28 093d 95bf 06bd
00000090: a019 9dbd a7f7 13be 0ea1 1bbe a731 0dbe
000000a0: 6bb2 a4bc d076 09be 2c3b 09be 3eb8 133e
000000b0: d809 8a3d f4dc ba3d 8c17 dabd daa0 ddbd
000000c0: 00e1 0ebe 795d 73bd 5b9a 0fbe ec8e 563d
000000d0: 5089 8d3d c3aa b93d 7522 88bd f6bf aa3d
000000e0: 4338 2abd 3a36 a8bd 566b e13c 1c1b e83c
000000f0: 952a 3abe 6dab 9dbe 0b81 163d c450 b33d
00000100: 30a7 06be 114a febd a5cf 11be f9a2 98bd
00000110: badf be3d e707 dcbd c134 1cbe 650b 283c
00000120: ab72 4fba 50e6 07bd 13e9 cdbd 7ef3 1c3e
00000130: 1f9d 143e 4bb9 04bd d0eb 9fbd d65d 51bc
00000140: 18a9 8dbd dd56 223e 8950 043e 93a7 233c
00000150: 0de8 8dbd 9a41 eebd c78d 96bd b91b cabd
00000160: 5cf2 3c3d d17e ee3d aa37 253b b050 d93c
00000170: ca2c 7c3e 9f85 04bc a052 693e beb9 2cbb
00000180: 77e2 153e c498 cbbc 56ff 3a3e 5800 283e
00000190: e03a 833e 96d4 843e 1bd2 373e be9e 163e
000001a0: 870b 7a3e fc16 49bd bea8 0cbd d5b2 483e
000001b0: be55 96bd 4649 033e 6e6f c0bd 7055 283e
000001c0: 8ada 013e 83d9 f2bd 7ba4 c4bd 8ee4 a93d
000001d0: 76b8 7d3d 3bbf f93d 45e8 aa3d 99fb 243e
000001e0: 2ca0 13be f0f3 153e 3988 28be 3707 dbbd
000001f0: 455f 1c3e 7269 973a 1e06 05be 23cf 9d3d
00000200: 9fe6 013e d2ce 383d 37a9 153e 8269 f53b
00000210: 0c27 753d 8cc5 b9bd d791 923d 3ddd e7bd
00000220: a2c5 f3bd c239 f0bd 5732 613d 7a10 4a3d
00000230: 5c1a 29be 6fc9 49bd 9d43 02be 59ab 073c
00000240: 6625 6bbd 406d 93bd 006e c9ba 242f 273e
00000250: 58d9 a73d 4093 cebc 56ff 73bd 5635 c3b9
00000260: a0f2 4dbd 4005 d3bd 3736 0ebe fee5 cc3a
00000270: b958 0ebe 090d 043e 5563 403d 6749 763b
00000280: 3ecc 013e 2e4a 1cbe 9202 b4bd b5dc 343e
00000290: f5eb 32bd 8453 3a3d 04e9 063c b83f edbc
000002a0: fa7e 65be 25d5 71be f6c6 a43c 8b9f 093d
000002b0: 137d 22bc e576 113e f621 13be ef62 ff3d
000002c0: e301 003e 45db 0bbe 6ff8 ce3d a2a5 ab3a
000002d0: b031 1b3d a4b9 16be d696 a5bc 368f 12bd
000002e0: d676 e4bd 5b33 4abd 033d cdbd 030e 83bd
000002f0: 2b63 1b3c 7077 293c 768f 8bbd 98eb 6f3c
00000300: 4c74 df3d bd3b b7bd c320 d9bc 433f 143e
00000310: 9f5b eebd dd22 aa3d 1653 c03d 8ea6 e33c
00000320: 81ea 143e 74ad 433e c3fa ae3d e0a7 f23c
00000330: 9f99 383e 820b 943e 15a3 843d 13b7 7fbd
00000340: 500f 3fbc 7770 1d3d b5e0 9b3c a28c 463e
00000350: 8d15 813e d6bf 393d afa5 6cbd a70c 123e
00000360: 4eb8 babd 9bfb 4a3d 9ab9 0bbe 1688 0cbd
00000370: 767e dbbc 0e1d 19be 2f3a 0ebe 0b0a 86bd
00000380: eb2a 6dbd a7ed a9bc 7e57 8dbd 5d7e 19bd
00000390: 5d1b 6f3d 597a 59bd 1273 833d 7ba0 09be
000003a0: d9ae 653d c52f 0dbe 0555 e73d 6ed2 8cbc
000003b0: ff0a 50bd 8438 273e 5878 1b3e a436 343e
000003c0: ec7c 263e 493e 263e 7d4d 023d a4d9 353d
000003d0: a45b 0a3e f3eb 093e de55 3f3e 14f6 74bd
000003e0: 3355 6a3d 8b6a 743d 5e8e 023e fc9c 233e
000003f0: c0e7 8e3d 40af 0ebe fb9a 11bd 0bee 7d3d

conv2.bias f4 [8]
0.04591011 -0.06578388 0.0733088 -0.06749484 -0.029282812 0.13970529 -0.016728442 -0.016479598
00000000: 3d0c 3c3d b3b9 86bd ed22 963d bc3a 8abd
00000010: 82e2 efbc e70e 0f3e 160a 89bc 3900 87bc

conv3.weight f4 [16, 8, 3, 3]
-0.019956697 0.017256869 -0.0011596855 0.0415466 0.027929794 -0.10258388 0.01941365 0.05845292
-0.08522081 -0.0546221 0.04745672 0.02100565 0.024956735 -0.1137168 -0.09645289 0.0032464294
0.028943662 0.1213725 0.06282573 -0.043057453 -0.015759075 0.022596521 0.10870767 -0.18146466
-0.016015965 -0.022190886 -0.05027166 0.06812349 -0.07020691 -0.0960716 0.012552965 -0.017964685
-0.058771912 0.11725711 0.028941914 0.110873036 -0.08061801 0.013137046 -0.1446775 -0.10277618
0.030077018 0.056292463 0.03213863 -0.08669652 0.0449339 0.03179232 0.053691514 0.073572956
0.15249486 -0.0031949347 0.030855317 0.091728576 0.044934124 0.1582783 -0.102311336 0.031885054
-0.23816791 -0.008942187 0.15051605 0.049022827 -0.0019543134 -0.0940536 0.16138968 0.0312655
-0.014290981 -0.042550318 0.015400637 0.07749788 0.08236558 -0.02553071 -0.09025505 -0.07395789
-0.024481308 0.12236354 0.02576549 0.025547355 0.108528815 0.00022492016 0.04364702 0.12168032
0.035456058 -0.013796307 -0.11457764 -0.05808474 0.06437285 0.12273842 0.09286315 -0.044066336
-0.10781606 -0.006035009 0.048040673 0.1179829 -0.004629183 0.018155383 0.019083025 0.106446326
0.038943294 0.08628341 0.07287284 -0.045733273 0.053216405 0.08401947 -0.10331399 0.035945553
-0.06219072 -0.036222495 0.0017449443 -0.050607882 -0.061339717 0.04223702 -0.1313868 -0.116885625
0.007867538 0.05271343 0.09094292 -0.12078484 0.006956479 0.066525705 -0.031420402 0.07058328
0.06817177 0.09724536 -0.05714062 -0.000822137 0.0069670114 0.09318972 0.018850643 0.1303211
-0.0065916553 0.13300115 0.043713126 0.18399248 0.041434884 -0.012579152 0.086202964 0.011958014
0.07770137 0.08138137 0.02784444 0.06702897 -0.13840595 0.09464041 -0.056321472 0.011924039
0.22833154 0.1755188 0.06399251 -0.028501498 0.0018459593 0.052823193 0.06597677 -0.026164537
-0.05638944 0.10748712 0.010579505 -0.03654608 -0.020481642 -0.049411938 -0.045046926 0.04094674
0.064942546 0.095643595 0.04788742 0.14400755 0.028318945 0.105292656 -0.05353539 -0.05012628
0.032922238 0.032976463 -0.062367678 -0.006159926 0.017914675 -0.03230423 -0.09073412 0.03939555
0.0015724726 -0.04010382 -0.055459112 0.10429567 -0.0378896 0.08438366 0.116642416 0.020596638
-0.056928057 -0.012389165 0.0641779 0.12159134 0.03587709 -0.021743927 0.09680013 -0.04804056
0.0693777 0.05915122 0.014155369 -0.044957772 0.07053056 -0.07482104 0.15548143 0.047282908
0.14361498 -0.039609794 0.13474494 0.08532982 -0.134689 0.04166564 0.0043462496 -0.11729977
0.10513795 0.110459045 -0.08310068 0.052764513 -0.07294581 0.054147165 0.060235407 0.030578354
0.006113096 -0.017964808 0.017093489 -0.024663111 0.11337089 0.124032624 -0.051661093 0.09008473
0.07334346 0.101307265 -0.09667327 0.07906738 -0.027946934 0.069134645 0.00015740473 0.0040667807
-0.07348313 -0.099391215 0.01675139 -0.0003273896 -0.062170297 0.08281981 0.13230978 0.1504089
0.04903741 -0.0216024 0.08454447 0.073314086 -0.050089657 0.08235823 0.034284238 -0.016011488
-0.026813116 0.078425534 -0.0031327538 0.0022692145 0.13609368 -0.09199466 -0.10429521 0.015949694
00000000: 3a7c a3bc 475e 8d3c 9700 98ba c52c 2a3d
00000010: 06cd e43c 7f17 d2bd 6009 9f3c 546c 6f3d
00000020: 3f88 aebd 6cbb 5fbd fa61 423d 0a14 ac3c
00000030: 1172 cc3c 5be4 e8bd 1889 c5bd 0cc2 543b
00000040: 421b ed3c 2592 f83d c7aa 803d 035d 30bd
00000050: 2d19 81bc 571c b93c 20a2 de3d dfd1 39be
00000060: ea33 83bc a9c9 b5bc a8e9 4dbd 5484 8b3d
00000070: a4c8 8fbd 30c1 c4bd f4aa 4d3c ad2a 93bc
00000080: d1ba 70bd 7f24 f03d 9817 ed3c 6711 e33d
00000090: 0e1b a5bd c43c 573c 5726 14be 517c d2bd
000000a0: 1464 f63c ed92 663d cca3 033d f28d b1bd
000000b0: 9c0c 383d aa38 023d a2eb 5b3d 6bad 963d
000000c0: 9d27 1c3e 1c62 51bb 4ac4 fc3c 31dc bb3d
000000d0: d80c 383d b513 223e 9b88 d1bd e799 023d
000000e0: 4ae2 73be 4082 12bc e120 1a3e 29cc 483d
000000f0: f013 00bb 2d9f c0bd 5643 253e 4110 003d
00000100: b824 6abc 3e49 2ebd f452 7c3c 35b7 9e3d
00000110: 49af a83d c825 d1bc a4d7 b8bd 3c77 97bd
00000120: 068d c8bc bc99 fa3d 2612 d33c b048 d13c
00000130: 5b44 de3d 8cd8 6b39 38c7 323d 8833 f93d
00000140: 5f3a 113d e809 62bc afa7 eabd 44ea 6dbd
00000150: ead5 833d 485e fb3d 092f be3d e77e 34bd
00000160: abce dcbd 53c1 c5bb 4cc6 443d 05a1 f13d
00000170: 67b0 97bb 99ba 943c 0154 9c3c 8800 da3d
00000180: 0183 1f3d 5bb5 b03d 5b3e 953d d052 3bbd
00000190: 72f9 593d 6612 ac3d 4996 d3bd a53b 133d
000001a0: b2bb 7ebd 0a5e 14bd 9db6 e43a 364a 4fbd
000001b0: 5b3f 7bbd ba00 2d3d 438a 06be bb61 efbd
000001c0: d9e6 003c 0aea 573d 4840 ba3d 0b5e f7bd
000001d0: 2df3 e33b a13e 883d aeb2 00bd f78d 903d
000001e0: a49d 8b3d 9328 c73d 480c 6abd ae84 57ba
000001f0: 874b e43b 40da be3d aa6c 9a3c e572 053e
00000200: d0fe d7bb 7431 083e 890c 333d 8668 3c3e
00000210: a0b7 293d ca18 4ebc 2e8b b03d 8ceb 433c
00000220: e521 9f3d 47ab a63d 061a e43c 7c46 893d
00000230: 4aba 0dbe d5d2 c13d 58b1 66bd 0b5d 433c
00000240: becf 693e 33bb 333e 810e 833d f97b e9bc
00000250: 1ef4 f13a 225d 583d d41e 873d 0357 d6bc
00000260: 9df8 66bd 3522 dc3d a955 2d3c 58b1 15bd
00000270: 1ec9 a7bc 2c64 4abd 2083 38bd c5b7 273d
00000280: 9900 853d cae0 c33d 9925 443d b776 133e
00000290: 22fd e73c ada3 d73d ed47 5bbd 3751 4dbd
000002a0: 78d9 063d 5412 073d 4075 7fbd 34d9 c9bb
000002b0: ccc1 923c 7151 04bd cfd2 b9bd 3a5d 213d
000002c0: 6d1b ce3a e743 24bd 1829 63bd f898 d53d
000002d0: 2032 1bbd 57d1 ac3d 38e2 ee3d 48ba a83c
000002e0: 652d 69bd edfb 4abc b46f 833d e104 f93d
000002f0: dbf3 123d 5220 b2bc 263f c63d 2ec6 44bd
00000300: e515 8e3d 8d48 723d eceb 673c a425 38bd
00000310: 5472 903d c63b 99bd 8636 1f3e b9ab 413d
00000320: ce0f 133e e13d 22bd 94fa 093e 67c1 ae3d
00000330: eaeb 09be 97a9 2a3d fc6a 8e3b dd3a f0bd
00000340: 9152 d73d 5a38 e23d b030 aabd 9a1f 583d
00000350: 9d64 95bd 6bc9 5d3d 67b9 763d 757f fa3c
00000360: 5e50 c83b ef2a 93bc a507 8c3c 4b0a cabc
00000370: ff2e e83d d104 fe3d 959a 53bd 587e b83d
00000380: 1935 963d 2f7a cf3d a3fc c5bd 14ee a13d
00000390: f8f0 e4bc 7796 8d3d 030d 2539 a142 853b
000003a0: 537e 96bd 9f8d cbbd 363a 893c 7da5 abb9
000003b0: 48a6 7ebd 6f9d a93d 377c 073e ca04 1a3e
000003c0: 74db 483d 84f7 b0bc a725 ad3d b225 963d
000003d0: d02a 4dbd 6fab a83d a16d 0c3d 862a 83bc
000003e0: 2ea7 dbbc 919d a03d e34e 4dbb 1ab7 143b
000003f0: 245c 0b3e b267 bcbd ba98 d5bd efa8 823c

conv3.bias f4 [16]
0.2816457 -0.08823336 0.22396867 0.02953101 -0.36662292 0.18727899 0.3280673 0.26176348
0.23582634 -0.030148355 0.09431122 0.058482215 -0.27686962 0.20887206 -0.2610564 0.23883468
00000000: dd33 903e b1b3 b4bd 0b58 653e 04eb f13c
00000010: 00b6 bbbe 10c6 3f3e 70f8 a73e dd05 863e
00000020: 767c 713e aff9 f6bc 3e26 c13d 0c8b 6f3d
00000030: dbc1 8dbe 8fe2 553e 2fa9 85be 1491 743e

output.weight f4 [2, 576]
0.022589851 0.03347338 0.035130046 0.01362348 0.008179708 0.07162122 0.08505817 0.014776156
-0.015924253 0.07241567 -0.011974613 0.13265087 0.12169997 -0.030734342 -0.0054272134 0.04931726
-0.054147225 -0.023688955 -0.007877083 -0.121038035 -0.015266757 0.021573631 0.047976933 -0.008554466
0.074610904 -0.09250903 -0.029492253 -0.038268264 -0.004008798 -0.041534033 0.06704563 0.0634564
0.054783147 0.010670026 -0.030312562 0.006800008 -0.17843299 0.0065847747 0.04773385 -0.022020785
-0.12992558 -0.11499992 0.0052962927 -0.07127043 0.014740763 -0.037591945 -0.13205665 0.05457364
0.02185728 -0.10918482 0.045892596 0.034164693 -0.12347399 -0.120014824 0.007129089 -0.12002952
-0.0076228003 0.060397986 -0.03999475 -0.13866179 -0.10621179 -0.15018554 0.016455907 0.08571242
0.003173324 -0.08796677 0.10125865 0.08408963 0.03966786 0.0642396 0.040786047 0.08215298
-0.047050096 0.16256167 0.14668734 0.09387431 0.01710083 -0.066110194 0.052253176 0.041828256
-0.026122747 -0.046563275 -0.012022034 0.12803572 0.051354595 -0.11363948 -0.002595584 -0.0030243727
-0.053921163 -0.11669878 -0.0026592067 -0.07626388 0.03430434 -0.018229138 0.025120895 0.014396985
-0.07257937 -0.1803001 -0.031549692 0.08921152 -0.045589883 0.056784514 0.055180922 0.0802259
-0.023968758 0.016015377 -0.037537176 -0.026213946 -0.0597271 0.07126515 -0.0055196784 -0.061255243
-0.018325724 -0.07849754 0.028167585 -0.09206976 -0.013395138 -0.048877127 -0.18364517 0.09021056
-0.017402267 -0.08876851 0.058545154 0.030112443 -0.045398314 -0.0741299 -0.099658124 -0.07257709
0.014404199 0.052520145 0.06301663 -0.20051602 -0.11294796 -0.09738675 0.0018771669 0.011037002
-0.06854049 -0.18409719 0.1127507 0.090172656 -0.0113391895 0.06796277 0.017894072 0.07607086
-0.01060091 -0.022211969 0.033921532 0.0245058 -0.016175603 -0.020182472 -0.020629575 -0.0049204133
-0.007544294 -0.029682737 0.028398406 0.009786561 -0.0088272095 0.013917576 0.013209915 0.03717985
-0.019799218 -0.0027945638 0.028590044 -0.01909858 -0.01254116 0.009443025 -0.0026324838 0.014451082
0.0070312223 -0.008951461 -0.040621787 -0.029206794 0.022360709 -0.0022410403 -0.03376877 0.01032277
-0.018332532 -0.0033162385 0.029068034 -0.032813814 -0.05005638 0.06703958 0.065827504 0.06349553
0.0187247 0.009598199 0.12630425 -0.031275537 -0.015561353 0.02598775 -0.035110574 0.110362716
0.10006967 -0.023221973 -0.011504626 0.014549018 -0.038570236 0.052682687 -0.07967545 -0.056141715
0.019749349 0.07103172 -0.04871587 0.013798613 0.024254918 -0.10361075 -0.041579027 0.050431393
-0.064438954 -0.068362005 0.060985625 0.06143876 0.034362737 0.08693744 -0.022561051 -0.0060140006
-0.0018200745 0.11410407 0.048217278 0.053083103 0.03156621 -0.03089627 0.13050383 0.013436822
0.0050406815 0.02964143 0.0008451936 0.10442443 0.10885364 -0.01483925 0.040288292 0.01944946
-0.045466434 0.061355848 0.035102293 -0.099665955 0.040520087 0.0037054864 0.008314903 -0.026626414
-0.05314644 -0.09110194 -0.015229941 0.0433847 0.013383358 -0.12833387 0.08692777 -0.013755754
0.02320348 -0.009844764 -0.027907403 0.05514548 0.06784596 0.13384852 0.033118922 -0.029819047
00000000: 5a0e b93c 621b 093d 86e4 0f3d 0435 5f3c
00000010: 2f04 063c 25ae 923d fa32 ae3d b117 723c
00000020: 9473 82bc ab4e 943d 2b31 44bc a1d5 073e
00000030: d53d f93d 96c6 fbbc c4d6 b1bb e500 4a3d
00000040: 7bc9 5dbd 570f c2bc e10e 01bc cae2 f7bd
00000050: 6c21 7abc 2fbb b03c 7683 443d 0828 0cbc
00000060: 9acd 983d 6075 bdbd bd99 f1bc 2fbf 1cbd
00000070: 3c5c 83bb 971f 2abd 384f 893d 6ef5 813d
00000080: 4b64 603d 55d1 2e3c 0d52 f8bc 9ad2 de3b
00000090: 23b7 36be 18c5 d73b 9284 433d ef64 b4bc
000000a0: 360b 05be 1485 ebbd 868c ad3b 3bf6 91bd
000000b0: 3e83 713c 03fa 19bd dc39 07be 9c88 5f3d
000000c0: 0a0e b33c 4a9c dfbd e0f9 3b3d 47f0 0b3d
000000d0: eedf fcbd 55ca f5bd 229b e93b 09d2 f5bd
000000e0: afc8 f9bb e163 773d 89d1 23bd 5bfd 0dbe
000000f0: 9185 d9bd 3dca 19be 8ace 863c fe89 af3d
00000100: 8bf7 4f3b ec27 b4bd b260 cf3d 2f37 ac3d
00000110: c47a 223d 0d90 833d 450f 273d d23f a83d
00000120: 9ab7 40bd 9176 263e 3535 163e 2d41 c03d
00000130: 0a17 8c3c c864 87bd 6d07 563d 1b54 2b3d
00000140: 5fff d5bc 22b9 3ebd 11f8 44bc cc1b 033e
00000150: 3259 523d d1bb e8bd ac1a 2abb 8e34 46bb
00000160: 70dc 5cbd c5ff eebd 1646 2ebb 3d30 9cbd
00000170: b582 0c3d 4655 95bc 56ca cd3c 55e1 6b3c
00000180: 7ea4 94bd 97a0 38be 403a 01bd 88b4 b63d
00000190: 75bc 3abd e196 683d 6405 623d 7a4d a43d
000001a0: 215a c4bc ae32 833c 95c0 19bd a1be d6bc
000001b0: 67a4 74bd 77f3 913d 6bde b4bb c7e6 7abd
000001c0: d41f 96bc 51c3 a0bd b5bf e63c 128f bcbd
000001d0: 4877 5bbc 6233 48bd 7b0d 3cbe 50c0 b83d
000001e0: 338f 8ebc 44cc b5bd 0bcd 6f3d 5fae f63c
000001f0: 95f3 39bd 6bd1 97bd 8f19 ccbd 4ca3 94bd
00000200: 97ff 6b3c 5d1f 573d dd0e 813d 1254 4dbe
00000210: 4351 e7bd b472 c7bd 450b f63a 8bd4 343c
00000220: f55e 8cbd f983 3cbe d7e9 e63d 71ac b83d
00000230: 02c8 39bc 1130 8b3d 9796 923c 0acb 9b3d
00000240: 70af 2dbc e0f5 b5bc 4ef1 0a3d 63c0 c83c
00000250: b382 84bc b655 a5bc 5bff a8bc 6b3b a1bb
00000260: 2036 f7bb 3629 f3bc c6a3 e83c d057 203c
00000270: 00a0 10bc 8b06 643c 666e 583c e649 183d
00000280: f831 a2bc 0025 37bb ab35 ea3c a074 9cbc
00000290: 7079 4dbc ebb6 1a3c c085 2cbb 3bc4 6c3c
000002a0: 2b66 e63b 26a9 12bc 0863 26bd 1643 efbc
000002b0: ce2d b73c 6bde 12bb 1f51 0abd d620 293c
000002c0: 1b2e 96bc 4055 59bb 1620 ee3c c767 06bd
000002d0: eb07 4dbd 0c4c 893d 92d0 863d f209 823d
000002e0: 8b64 993c c441 1d3c e755 013e c71a 00bd
000002f0: 0cf5 7ebc 43e4 d43c 1bd0 0fbd d905 e23d
00000300: 54f1 cc3d 023c bebc e67d 3cbc 015f 6e3c
00000310: d3fb 1dbd cdc9 573d e22c a3bd dbf4 65bd
00000320: 63c9 a13c 1479 913d 4b8a 47bd 9413 623c
00000330: 40b2 c63c df31 d4bd c54e 2abd 2691 4e3d
00000340: 92f8 83bd 6101 8cbd 10cc 793d 36a7 7b3d
00000350: f1bf 0c3d 420c b23d f4d1 b8bc 1811 c5bb
00000360: 918f eeba 65af e93d 7b7f 453d ab6d 593d
00000370: 924b 013d 2d1a fdbc cca2 053e 1e26 5c3c
00000380: 4d2c a53b 96d2 f23c fb8f 5d3a 7adc d53d
00000390: a8ee de3d 5320 73bc 5605 253d 7954 9f3c
000003a0: 033b 3abd 4550 7b3d 6cc7 0f3d aa1d ccbd
000003b0: 64f8 253d bfd7 723b 3b3b 083c a31f dabc
000003c0: 15b0 59bd a793 babd 0187 79bc 28b4 313d
000003d0: df45 5b3c f469 03be 3007 b23d d05f 61bc
000003e0: 3915 be3c ef4b 21bc 119e e4bc 3ae0 613d
000003f0: d3f2 8a3d 960f 093e b5a7 073d 1347 f4bc

output.bias f4 [2]
-0.18876077 0.3051101
00000000: 814a 41be 6437 9c3e
