models/quantum_neuromorphic_rate_model.pth (torch, 24053 bytes, 11 tensors)

conv1.weight f4 [4, 1, 3, 3]
00000000: aff0 4f3d 3a75 933e 7eee 3c3e 48f0 273e
00000010: b3df 9e3d f515 233e 4c00 8ebd a838 693c
00000020: 4302 01bd 63af 933e b2dc 893e 06c6 11be
00000030: fb87 03be c5da 83be 1fd3 8ebb c589 1fbe
00000040: 246f 71be 6295 d9bb bad9 fe3d d208 5e3d
00000050: 6702 673d 46e8 5c3e 6aa6 083e a2e8 24bd
00000060: 9230 a23c 5db4 783e b39d 34bc 776b ad3e
00000070: 1ff2 753d 1610 83bd d071 533e 875d f73d
00000080: 9aaa b33e 6b5a be3d 5029 203e 14b0 0f3d
0.050766643 0.28800374 0.18450353 0.16400254 0.07757511 0.15926345 -0.069336504 0.014234699
-0.031496298 0.28844747 0.2692619 -0.14235696 -0.12844841 -0.25752845 -0.0043586637 -0.15579899
-0.23577553 -0.0066401223 0.12443872 0.05420763 0.056398775 0.2157298 0.13344732 -0.04026092
0.01979855 0.24287553 -0.011023927 0.33871052 0.060045358 -0.063995525 0.20648885 0.12078386
0.35091096 0.092945896 0.1564076 0.03508003

conv1.bias f4 [4]
00000000: 95c8 26be eefc 84be 989b 3dbe 0c5e a7be
-0.16287453 -0.2597422 -0.18516386 -0.3268894

conv2.weight f4 [8, 4, 3, 3]
00000000: 07a2 02be bff6 903d 8528 cabb 8514 303d
00000010: b0c2 75bd 7606 6bbc 7171 563e 870d 293e
00000020: 8ce8 b93d 9354 473d e93c 7a3a 1158 19bc
00000030: 15e5 fdbc 9500 cdbd 82d5 223d a253 453e
00000040: c51e 663e b9c2 313e 1dc7 02be cc4c 143e
00000050: abf0 343e 5436 163e 2abe 8a3e 313f 5a3e
00000060: e8d1 453e fe6d 6c3e 376a aa3d 278b 2e3e
00000070: 7cf5 163e 2f78 143e 2559 753e 2312 853e
00000080: 1e3f 2d3e fd01 da3d 49d5 ff3d 7986 483e
00000090: 78c2 2e3d dd83 7c3c 3bf6 413e 73bf 8a3c
000000a0: 0e62 a43c 1a2d 153e d819 9b3d 229f 9bbd
000000b0: 3de3 f93d 37b0 683d 48e4 693e c3ac b9bd
000000c0: cf3c a5bd 06de e43d a151 873d 1584 8a3d
000000d0: af74 d1bd 2e09 2e3d e4a0 143e 8636 623d
000000e0: e04a 403e ce5e e2bc f3a0 013c fbff d23d
000000f0: b952 bb3d 5ba4 de3d 58f0 1c3e 0898 493e
00000100: 02a4 413e 5b60 943e 75aa 2e3e a946 863d
00000110: c080 243e e412 373c 526a 303e c40d b13d
00000120: 5782 e0bc 5475 0f3e 196a 38bd 0f51 d23d
00000130: 0c6b ab3d c6f0 083e c739 db3d 8d31 06bd
00000140: c0bc f4bd 4b62 2fbd 5543 22bd a490 023e
00000150: dac2 453e 54b4 2c3e eeaa f53d 787f c43d
00000160: 2864 15bc a8bb a83d 8926 f43d e19e 3e3e
00000170: e8b0 3c3d 1381 2a3d 71a2 bf3b af25 6a3d
00000180: f20a 273d 9fc4 223d c1e5 b9bd 5216 913e
00000190: a10c 8c3e a717 e83d 8554 c13d bb2e 7d3d
000001a0: 0b79 c83d f9ad 253d 73d9 00bd 411b ba3d
000001b0: b494 8e3d b123 4c3c 96ed 10be 5ea8 03be
000001c0: 0e0a aebd 5240 55bd d518 0d3d 1ba5 febc
000001d0: 1e4f 193d ecb6 2a3d f5ba e23d 6db8 a9bd
000001e0: ae63 f1bd 1e46 8f3d 7062 f73d b488 333d
000001f0: 7f34 363e bab8 0fbe 8cd9 bfbc 672c 3ebd
00000200: 77ae bf3d 6ab8 acbb 0a9b 57bd 9b25 c7bd
00000210: a9a5 2ebe 6d1b 22be 2679 62be edc9 c63d
00000220: c469 d23d ea9e 3bbd 8316 7f3d 8cfb 68bc
00000230: 6cc6 dbbc cbd7 81bb 5fb2 10bd 63ab 8bbd
00000240: e88b cd3d 3643 c3bd 38e7 0dbe 86a0 c3bd
00000250: fda8 01be f3c9 c3bd 1359 053e 67e3 13be
00000260: 9629 8ebb 1d3f 8dbd 98ac 81b9 3298 193e
00000270: 7933 c7bd f265 f3bd 214b f03d 6d78 d3bd
00000280: c28f 2fbd bfd5 36be 23cf 6e3d 9282 af3d
00000290: 1abc 37bc 8598 e13d 663c fb3d dd2f cf3c
000002a0: 7d9d 083e e1f3 e1bd 1a20 9abd 1a63 b33d
000002b0: 546c ecbc e8f1 24bc 676e 25be 74d5 f3bc
000002c0: c65a c5bc 36dc cfbd 1ac7 93bd c15f 32be
000002d0: 8651 953d 568f f2bd 5a74 eebd 07e0 21be
000002e0: 2cd1 5e3c 45a7 8fbd 6a02 bdbd d027 d93c
000002f0: 0272 1e3d c998 173d c414 bcbd ec41 9bbd
00000300: fd92 123e 4dc9 5b3d 0db0 2dbb 1488 dfbc
00000310: 6d34 233d 299f 44be 3259 36bd fdb3 dabc
00000320: aeaf 093d 2959 1fbe af71 84bd 3df8 67bd
00000330: dd16 c8bd 383f 6d3d 0226 c83d bd4c 64bd
00000340: 51c7 16be 9def 6fbd b5a2 553d 9223 e83d
00000350: 97ec 39bd 3164 21bd 6e35 6bbd 6691 f63d
00000360: 5e4a 413e 6b03 2f3d 1782 bb3d 3870 7bbd
00000370: e5b6 f93d 964a f03d 9a91 10be 0a18 d93d
00000380: ebe9 173e dd11 bb3d b1db 1b3e 5bae ca3d
00000390: 0821 98bc fe67 31bd 1702 ef3d a60d bc3d
000003a0: 2ceb ef3c 2301 ad3d f281 203e e6f0 8f3d
000003b0: b023 4a3e 6061 6abd d3c6 48bd e823 1c3d
000003c0: f4f0 79bd 423a 4a3d 01ba a9bd 429c d73d
000003d0: 0c45 743e 839a 823e dc30 903d 5d2b 013e
000003e0: 28cf fd3d ad84 0d3d 0eef 91bd 5800 6fbc
000003f0: 2e60 673d e923 abbc 7663 503e c61a d63c
-0.12757121 0.07078313 -0.006169381 0.04298832 -0.06000012 -0.014344802 0.20941712 0.16509067
0.09077558 0.04866464 0.00095458195 -0.009359376 -0.030993024 -0.10009877 0.0397544 0.19270185
0.22472675 0.17359437 -0.12771268 0.1448242 0.17669933 0.14669162 0.2709821 0.21313168
0.19318354 0.23088834 0.0832104 0.1704527 0.14742082 0.14498971 0.23959787 0.259904
0.16918609 0.106449105 0.12491853 0.19582547 0.04266593 0.015412298 0.18941586 0.016936993
0.020066287 0.14567986 0.07573289 -0.075987116 0.122015454 0.056808677 0.22840989 -0.09066155
-0.08068239 0.1117516 0.06607366 0.06763474 -0.10227334 0.042489223 0.145145 0.05522778
0.18778563 -0.027633097 0.007911908 0.10302731 0.091466375 0.10871192 0.15326059 0.19686902
0.1891022 0.28979763 0.17057212 0.06556446 0.16064739 0.0111739375 0.17228058 0.08645204
-0.0274059 0.14009601 -0.045023058 0.10269367 0.08370027 0.13373098 0.107043795 -0.0327621
-0.11950064 -0.04281835 -0.039614994 0.12750489 0.19312611 0.16865665 0.11995493 0.09594625
-0.009118117 0.082389176 0.119214125 0.18615295 0.04606715 0.041627 0.005848222 0.057164844
0.040781923 0.039738294 -0.09077025 0.28337342 0.27353385 0.11332636 0.09439949 0.061812144
0.09788712 0.040449116 -0.031457376 0.090872295 0.069619566 0.012459681 -0.14153132 -0.12857196
-0.084980115 -0.052063294 0.03444751 -0.031084588 0.037428968 0.041678354 0.110708155 -0.082871296
-0.117865905 0.06995796 0.12079322 0.043831542 0.17793463 -0.14035311 -0.023419164 -0.046429064
0.093594484 -0.0052710073 -0.05263809 -0.097239695 -0.17055382 -0.15830775 -0.22116527 0.09706483
0.102740794 -0.04580585 0.06227733 -0.01422013 -0.026828013 -0.003962492 -0.035326358 -0.06819799
0.100364506 -0.09534304 -0.13857734 -0.09552102 -0.1266212 -0.09560003 0.1302226 -0.14442216
-0.0043384535 -0.068968035 -0.0002473339 0.14999464 -0.097266145 -0.11884679 0.1173308 -0.10325704
-0.042861708 -0.17854975 0.05830301 0.08569826 -0.0112142805 0.11015419 0.122673795 0.025291378
0.13341327 -0.11032844 -0.07525654 0.087591365 -0.028860249 -0.010067441 -0.16155396 -0.029764868
-0.024091136 -0.10149424 -0.0721571 -0.1741934 0.0729094 -0.118437454 -0.11643286 -0.15808116
0.013599675 -0.07014326 -0.09228976 0.026508242 0.038682945 0.03701094 -0.09183648 -0.07580933
0.14313884 0.053658772 -0.002650264 -0.027286567 0.03984492 -0.1920134 -0.044518657 -0.026697153
0.033614807 -0.15561356 -0.06466996 -0.056633223 -0.09769986 0.05792162 0.097728744 -0.055737246
-0.1472447 -0.058578122 0.052157123 0.113349095 -0.045391645 -0.03940219 -0.057424 0.12039451
0.18876025 0.04272787 0.09155672 -0.061386317 0.121930875 0.11732976 -0.14118043 0.10600288
0.14835326 0.091342665 0.15220524 0.09896537 -0.018570438 -0.043312065 0.116703205 0.09182291
0.029286943 0.084474824 0.1567457 0.070283696 0.19740176 -0.05722177 -0.04901774 0.03812018
-0.061020806 0.049371965 -0.082874306 0.10527851 0.23854464 0.25508508 0.07040569 0.12614198
0.123930275 0.034550358 -0.07125674 -0.014587484 0.05648821 -0.020891147 0.20350441 0.026135813

conv2.bias f4 [8]
00000000: 3c20 37be 5561 42be 1807 a23c be43 a93c
00000010: 8fe7 3bbd 6f8b 26be c303 5f3c f8bf 39bd
-0.1788339 -0.18982442 0.019778773 0.020662185 -0.04587513 -0.16264127 0.013611737 -0.04534909

conv3.weight f4 [16, 8, 3, 3]
00000000: 381b 70bd f8e9 08bd 6d74 81bc 6e29 a63d
00000010: 4499 cabd 73a5 b6bc 178b a93c fdec 993d
00000020: 029e 873c cdf7 693d b56a 1a3d d080 be3d
00000030: 10af 503d 64a6 60bd 660a 12bd b5e3 48be
00000040: 0141 43be a5cb d5bd 2595 8ebd 3a07 463d
00000050: d819 a13d 1ce2 aabd 5a4e 723c 762b b3bd
00000060: dd44 953d b46b 99bc 1b81 85bd 7325 78bd
00000070: b80a bf3d 1098 643d aed4 933d f1e9 f13c
00000080: 50ee 3cbd 6ca8 af3d cb06 053e 1c31 2a3c
00000090: fa9b 7f3d d963 633c 45c7 d9bc 14fe aabc
000000a0: 6192 623b d5dd debd 4bb0 ddbc 7e41 953c
000000b0: d7c9 f0bc 82d9 7dbd 6737 d3bd 2bf9 55bd
000000c0: c17c d1bd 61d9 42b9 6a6c 10be 7540 6e3d
000000d0: 6dca b73c 12c2 eebd d3fa 173e 004e fd3d
000000e0: 848b 253e 55e7 533d 6160 903d 7c94 2bbd
000000f0: 0217 99bd 2a76 3cbe 9144 48bd f065 6ebd
00000100: 86e4 ab3d 084d a73d 0b1b 6d3c 8425 1bbd
00000110: 9428 88bd 6dfb c7bc 44a4 e2bd 0b2e 8cbe
00000120: 8372 fc3c f0b8 4cbd cb6f 1ebe 4ee6 84bd
00000130: f0e9 3cbd a02d 2abe 7447 bdbc 2037 d53d
00000140: 3cda 593c cdf1 fdbc 1120 32be bb11 28be
00000150: 7ea2 f93d 5224 0fbe cc7e 87be fef5 99bc
00000160: fbf4 3fbc 3098 40be 074c 47bc 8356 b43d
00000170: 4c78 a5bd 21ff c8bd b582 77bd 5030 49bd
00000180: 8404 33bc 40aa 423b 81ef b1bd e5db dbbd
00000190: 09bd 713d eb2d 1e3d 6ec4 893d 1586 873c
000001a0: 2456 9cbd 25ce aa3d 16fe 1ebd bdc8 07bd
000001b0: 9d32 113e b1ab d8bd b6e8 a7bb 2e2a bdbd
000001c0: 9d0e 243c a39d aa3d d67b 093d 7bbc 5abc
000001d0: cb03 c8bd 8059 dcbd 099d 3bbd 77da eb3c
000001e0: 7735 e7bd eeb9 52bd 2ded 84bc 383b 71bc
000001f0: 4bf8 143d 0764 fd3c a737 b63d 58e1 14be
00000200: 40cc 4e3d 336a 7fbd df7a 86bd 6513 8dbd
00000210: cbd8 74bd 70ec 283d 66ef 15be e521 633d
00000220: 81bf 413c f3e1 0e3e 1b72 3cbd 6714 2f3e
00000230: 3fcc 1ebe 493a ffbd 5958 37bd 88eb 81bd
00000240: 46f9 d9bd 58a3 42bd c897 173d df18 8e3d
00000250: 016e 483e efcf 253c 58a4 183e 120a 4a3d
00000260: 7973 21bd 8030 183d 4e0a 103b dc0d fd3d
00000270: 22ea 163e a5a4 603e 24ab 883d 8c6b 593e
00000280: 3ea3 653e fc8d f8bb 6ffb 8cbd 3119 f0bd
00000290: 4fc6 a43c 819f f23c bbe6 873d be6e 273d
000002a0: be60 963c ec6f c43d 1888 043d 2ca2 d9bc
000002b0: d45c dbbd ed53 7cbc 0dba d6bc da2e bd3d
000002c0: 9c03 dc3d bc6b 00be fe5b f63d b532 24bd
000002d0: 8c06 7c3c 11dd f7bd 81d8 d9bd 8978 10bc
000002e0: 8ed8 b2bd cecd a0bc b36a dfbc 81ae be3d
000002f0: 9d2d 4c3d 03e2 793c bfb5 c73c 4257 be3d
00000300: f000 6c3d 83da f3bd 4a0b 79bc 20fd 77bd
00000310: c990 443d f7be d43d b17e b1bd 1591 1b3d
00000320: 943b 04bd 97a3 033e ccf0 b63d b03d 923c
00000330: 2c82 02bd 3374 44bd 6365 00be 0e00 2b3d
00000340: 3b91 233e 3620 d3bc c4c8 ec3a 615a ea3c
00000350: 884c d13c 657b be3d 46ad 9c3d 724d 2ebe
00000360: f5a3 03be 2910 d13c 8dfb 523d 9b06 09be
00000370: 94b1 023d c9f1 7f3e 03f6 43be 0fb0 e33d
00000380: 2d2d a23e 6971 81bd 5b53 a7be c091 e2bd
00000390: f1c1 e63c 41c1 b3bd 8988 7f3e 0de0 74be
000003a0: 11e4 223d 9dd7 9c3e 2f5b f5bd eaa2 e2bd
000003b0: 7961 1bbe 4007 6e3d 99a3 aabc f268 973d
000003c0: 4c11 25bd 121d 693d 5f29 8a3d 81ce 883d
000003d0: 6e30 66bd 2673 e5bd 04ff b9bc 95a5 b83d
000003e0: 792c 793d 7dd6 683b e2ef 0f3d ddf1 08bb
000003f0: aaeb 92ba 9cc7 0d3d 64c7 23be f821 673d
-0.058619708 -0.033426255 -0.015802586 0.08113371 -0.09892514 -0.02229569 0.020696206 0.07515905
0.016554836 0.057121087 0.03769942 0.09301913 0.050948203 -0.054846182 -0.035654448 -0.19618113
-0.19067766 -0.10439233 -0.06962041 0.048346736 0.078662574 -0.08343908 0.014789188 -0.08748524
0.07288525 -0.018728115 -0.065187655 -0.06058259 0.09328216 0.05580908 0.072183 0.029530497
-0.04612571 0.08577046 0.12990873 0.010387685 0.06240461 0.013878786 -0.026584277 -0.020873107
0.0034572112 -0.10882155 -0.027061602 0.018219706 -0.02939312 -0.06197501 -0.103133015 -0.05223958
-0.10228873 -0.00018582262 -0.14103857 0.05816694 0.022435391 -0.1165811 0.14841776 0.12368393
0.16166502 0.051734287 0.07049633 -0.041889653 -0.074750915 -0.18404451 -0.048893515 -0.058202684
0.08393197 0.081689894 0.01447178 -0.037877575 -0.06648365 -0.024411881 -0.110664874 -0.27378878
0.030816322 -0.049981058 -0.15472333 -0.0648924 -0.046121538 -0.16618967 -0.02310536 0.10410905
0.01329666 -0.030999089 -0.17395045 -0.16413014 0.12189196 -0.13978699 -0.26463926 -0.018794056
-0.011716123 -0.18808055 -0.012164122 0.08805563 -0.080795854 -0.09814287 -0.060427386 -0.04911834
-0.01092637 0.0029703528 -0.0868826 -0.10735301 0.05901817 0.03861801 0.06726919 0.016543427
-0.076336175 0.083401 -0.038816534 -0.033150423 0.14179464 -0.105796225 -0.005124177 -0.09236561
0.01001325 0.08330848 0.033565365 -0.013350601 -0.097663485 -0.10759258 -0.045804057 0.028790696
-0.112894945 -0.051446848 -0.016226375 -0.0147235915 0.036369603 0.030931486 0.088973336 -0.14539087
0.050487757 -0.06235714 -0.065664046 -0.06888465 -0.059777062 0.04124111 -0.14642105 0.055452246
0.011825443 0.1395338 -0.046007257 0.17097627 -0.15507601 -0.12462289 -0.04476199 -0.06343752
-0.10643248 -0.047519058 0.037009984 0.069383375 0.19573213 0.010120376 0.14906442 0.04932601
-0.039416764 0.03715563 0.0021978798 0.12356159 0.14737752 0.21937807 0.066732675 0.21232432
0.22425553 -0.007585285 -0.06883895 -0.11723555 0.020114092 0.029617073 0.06635805 0.040877096
0.018356677 0.0959166 0.03235635 -0.026566587 -0.10711065 -0.015400869 -0.026211763 0.09237452
0.10742876 -0.12541097 0.12029265 -0.04008742 0.01538242 -0.12102712 -0.10636998 -0.0088178
-0.08732711 -0.019629385 -0.027272558 0.09310628 0.049848188 0.015251639 0.024378655 0.09293987
0.05761808 -0.11906912 -0.015200445 -0.060544133 0.04798964 0.10387986 -0.086667426 0.037980158
-0.03228338 0.12855373 0.08932647 0.01785168 -0.031862423 -0.04796238 -0.12538676 0.0417481
0.1597337 -0.025772195 0.0018065204 0.02860755 0.025549188 0.093008794 0.07650237 -0.1702173
-0.12855513 0.025520401 0.05150943 -0.13381426 0.031907633 0.24994577 -0.19136815 0.11117565
0.3167509 -0.063204594 -0.32680783 -0.11062956 0.02816865 -0.08777095 0.24954428 -0.23913594
0.039768282 0.3063325 -0.119802825 -0.1106623 -0.15173902 0.058112383 -0.020829963 0.073930636
-0.0402997 0.05691249 0.06746172 0.066800125 -0.05619853 -0.112036034 -0.022704609 0.09015957
0.060833428 0.0035528236 0.03514088 -0.0020896115 -0.0011209149 0.03461419 -0.1599403 0.05642888

conv3.bias f4 [16]
00000000: d505 483d 9bbb 1bbe c687 63be 89a7 b13d
00000010: 258d 603d ee0d b9bd edac 653d 353a 643d
00000020: 7fb2 0dbe 3664 96bd 5665 a5bd 1f76 ad3d
00000030: fea2 a0be 22b6 67bd 4268 bd3d 8ae3 75bd
0.048833687 -0.15208285 -0.22219762 0.08674533 0.054822106 -0.0903586 0.056073118 0.055719573
-0.13837622 -0.073433325 -0.08075969 0.084697954 -0.31374353 -0.05657018 0.09248401 -0.06003145

linear.weight f4 [4, 576]
00000000: d635 c33c c8db ae3c 2819 d13d 1220 533d
00000010: a813 923b afb0 133d ccb0 593d ff27 923d
00000020: 4eb1 9bbb 7ceb adbb 1703 783d d8f3 d4bc
00000030: 73d1 c43d f308 92bc 46da 813c fe77 53bc
00000040: 0a95 10bd 54b8 883d 0c6f da3c c0d0 ed3c
00000050: 5508 90bc 1fac 89ba f1ff c43b 271f a63d
00000060: 1e84 5e3d a07f c73d a21b 2d3c 43ef 14bd
00000070: b753 553d 4ac2 3a3d 6970 6e3d 1c9a 73bd
00000080: 1879 9ebd 4fc2 42bd 3c21 47bd c5bd febd
00000090: 9808 e33b 00ac b539 9a5d f83c 1195 0a3d
000000a0: a3da bbbc 8c42 10bd 0ab9 8a3c de5a cfbc
000000b0: 80f8 493c ea5d b93c be3a c2bc b6d2 a93c
000000c0: 3a4a 853c 5684 26bd f86f b93b e5cb 033d
000000d0: 307a 49bb dfed 26bd 80d8 56bc d3c4 193d
000000e0: fe45 84bc 421e 863c 9094 333b d896 07bd
000000f0: 9572 1e3d d56c 153d f65a f13c 30a7 75bb
00000100: 74e6 343c d11b 083d e0d9 cebb 6665 2fbc
00000110: 6c84 5d3c 0c6f 35bc e68b b5bc 653f 123d
00000120: 1121 2bbe ee81 653d eb14 14bd 344c 96ba
00000130: 9e03 96bd a1a7 35bd 4983 273d 6df2 3b3d
00000140: 3b8d 05bd 4590 e3bc 1b49 afbd 6787 463d
00000150: 5194 b13d f8d5 2cbd 4fe5 283b 848c 6abc
00000160: 3fe5 22bd ad88 debc d888 343d f6f7 c1bd
00000170: 823f d3bb d7b8 b03a b065 4bbd b4eb a5bc
00000180: d114 7fbd 887c c5bd 35a6 ddbd 32f9 dc3c
00000190: f8f6 6dbd 1592 edbd 9670 00bc 014f 273d
000001a0: 9112 313d e007 283d d82a d6bc 8650 093d
000001b0: 5373 a23d 4838 443b fd0f a6bd 58f4 9cbd
000001c0: 848f f63d e686 cc3b 0b0d e13d db82 79bd
000001d0: 998b 963d 6e72 23bd bfc4 833d ac43 203e
000001e0: 722d f53c 99b6 bb3c a5c6 583d 6d44 26bd
000001f0: 1ff2 3e3d ad2b 883d 435a ecbd 590e 38bd
00000200: 80ec 37b6 b4bd fbbc ce0d de3c 7cb0 8dbd
00000210: ee07 973c a11c 0ebe b38d 4a3d 47a4 89bd
00000220: 1c01 78bd 1b78 31be e589 b33d e354 21bc
00000230: 2a2c 673d aea6 b1b9 16e5 783d 6ae6 863e
00000240: 7d35 1f3d 2329 ad3c 1d91 293d fa74 da3d
00000250: 7131 b1bc d83f 0dbe dfa4 29bd 70e3 08bd
00000260: 1379 79bd 050c f1bc 59b4 c03d 4dd8 36bc
00000270: 970a 67bd 61db 87bd fe01 61bd 3561 08bd
00000280: ea0c 273d 7f19 e03d 8c15 fab8 1ec4 31bd
00000290: cef2 b4bc e295 53bc c787 393d 768e 963c
000002a0: 08ee 08bd 411e 16bd cb13 9a3d 8bdf 09bd
000002b0: d625 963d a65c 2fba 9831 f53d 9e40 1abe
000002c0: 5e5c c3bc 82c3 a1bd 166b abbd 9fbc 87bd
000002d0: 62bb 3c3c 50c1 58bc 2b2f aabd dfca b8bc
000002e0: 3a12 85bc 7458 92bc a643 db3b 71c5 c7bb
000002f0: 4ea3 a6bd b3d6 333d 0e21 ddbb 5504 1d3d
00000300: a7d3 863b 4a01 a6bc 8940 0dbc 7948 d0bc
00000310: dbed cbbc 5e79 8bbd 2a52 6abc bc97 80ba
00000320: 9047 14bd 1db8 c73c 2a4a f0bc 5437 82bd
00000330: 0fa6 40bd a46f d8bc 908b b8bb bb44 4e3d
00000340: e3c4 1d3d fd3c 46ba 0fca be3c f87c 9f3b
00000350: af56 49bd d95c 4bbd 3b4e 463c 6779 993c
00000360: e68b 4cbd eda3 01bd 79cb 983d 8733 b83d
00000370: ba88 113d 7545 dabc d834 b6bd f581 673c
00000380: 8c0c 67bd cf37 d73b 6a5e 36bc 4fde e23b
00000390: 7c0c 31bb c643 8b3c 7552 90bd 8708 c23c
000003a0: 9953 03bd ce29 143d 0f08 4bbd 0225 b03d
000003b0: a56e dcbc 887d 10bd 7078 6e3c e44d 133d
000003c0: efee 1a3d 4949 8a3b 6849 383c 87f1 84bd
000003d0: d93d b13b f7d2 763d 2b31 783c bc35 5bbc
000003e0: 63b4 c0bd 675a 27bd e336 06bc 9de6 02be
000003f0: 6e18 a03d b68e f03c 75ff fbbc a2ac e33d
0.023829382 0.021345034 0.10209876 0.051544257 0.0044579096 0.03605717 0.053147122 0.07136535
-0.004751361 -0.005307613 0.06054982 -0.02599518 0.09610262 -0.017826533 0.015851151 -0.012907026
-0.035298385 0.06675783 0.02666428 0.029030204 -0.017582098 -0.0010503567 0.006011956 0.081114106
0.054325216 0.097411394 0.01056567 -0.03636099 0.05208179 0.045595445 0.05821267 -0.059473142
-0.077379405 -0.04754859 -0.04861568 -0.124385394 0.0069285147 0.0003465116 0.03031807 0.033833567
-0.022931403 -0.035219714 0.016933937 -0.025311884 0.012327313 0.02262779 -0.023709651 0.020730358
0.016270746 -0.04065355 0.0056590997 0.03217687 -0.0030742995 -0.040754195 -0.013113141 0.03754122
-0.016146656 0.01637185 0.0027401783 -0.03310284 0.038683493 0.036480743 0.029462319 -0.0037483685
0.011041272 0.033229653 -0.006312594 -0.010705328 0.013520341 -0.011073839 -0.022161435 0.03570499
-0.16711833 0.056032114 -0.03615276 -0.0011466802 -0.07324909 -0.044349317 0.040896688 0.045885492
-0.03260539 -0.027778754 -0.08558866 0.048468973 0.08670867 -0.042196244 0.0025771444 -0.014315728
-0.039769407 -0.027164781 0.044075817 -0.09471123 -0.0064467797 0.0013482821 -0.049657524 -0.020253994
-0.06227571 -0.09642893 -0.10822717 0.026974294 -0.058096856 -0.116001286 -0.007839343 0.04084683
0.043230597 0.041023135 -0.026143476 0.03352406 0.079321526 0.0029940773 -0.08108518 -0.07663792
0.12039092 0.006241667 0.10988816 -0.06091581 0.07350845 -0.03990405 0.06434011 0.15650815
0.029928897 0.022914218 0.052923817 -0.0405926 0.046617623 0.066489555 -0.115406536 -0.044935558
-2.7406786e-06 -0.030730106 0.027106192 -0.06918427 0.018436398 -0.13878109 0.04945154 -0.067207865
-0.060547933 -0.17330973 0.08766536 -0.009846899 0.056438603 -0.00033884257 0.06076535 0.26347667
0.03886937 0.02113778 0.041398156 0.10666843 -0.02163002 -0.13793886 -0.041417 -0.033420026
-0.06090648 -0.029424677 0.094093986 -0.011159969 -0.056406584 -0.0663364 -0.05493354 -0.03329583
0.0407838 0.10942363 -0.000119249424 -0.043399923 -0.022088435 -0.012914153 0.045295503 0.018378478
-0.03343013 -0.036649946 0.075233065 -0.033660453 0.073314354 -0.0006689526 0.1197235 -0.15063712
-0.023847755 -0.07898618 -0.083700344 -0.066277735 0.011519285 -0.013229683 -0.08309778 -0.022557674
-0.016244043 -0.017864443 0.006691414 -0.006096535 -0.08136617 0.043905925 -0.006748325 0.03833421
0.0041145864 -0.020264287 -0.008621343 -0.025425183 -0.024893692 -0.06810258 -0.014301816 -0.0009810845
-0.03620106 0.024379784 -0.02933224 -0.06358209 -0.047033366 -0.026420422 -0.0056318715 0.050358515
0.038517844 -0.00075621885 0.023289708 0.0048671924 -0.049154934 -0.049649093 0.012103613 0.018734647
-0.049938105 -0.031650472 0.07460684 0.08994203 0.035530783 -0.026644448 -0.08896798 0.014130105
-0.05640845 0.006567932 -0.0111309085 0.006923474 -0.0027015498 0.01700009 -0.070469774 0.023685707
-0.032062147 0.03617268 -0.049568232 0.08600809 -0.026908228 -0.035275966 0.014555082 0.035962954
0.03782552 0.004220162 0.01124797 -0.0649138 0.005408984 0.060259786 0.015148441 -0.0133795105
-0.09409406 -0.0408577 -0.008191797 -0.12783284 0.078171596 0.029364925 -0.03076146 0.111169115

linear.bias f4 [4]
00000000: a4d3 83bd c0a8 75bc d7d6 4ebd ca99 aabd
-0.064368516 -0.014993846 -0.050497856 -0.08330114

quantum.qlayer.weights f4 [6, 4]
00000000: 45ab 0540 8f49 1940 fe90 2d40 d5a9 183f
00000010: 187d 3340 ffbc 3840 95e8 bd3f 3d9d 9d3f
00000020: d723 0640 2b24 ad40 6432 c240 0ccf 9140
00000030: 0854 0140 0717 4340 62c4 6740 5306 ba40
00000040: 5aa6 543e 80ff b640 e6fc b140 9ac1 e43e
00000050: 95eb fa3f 05ae 2e3e 42f1 1740 4982 c740
2.0885785 2.3951147 2.7119746 0.59634143 2.80451 2.8865354 1.4836603 1.231361
2.0959375 5.410665 6.068651 4.5565243 2.0207539 3.0482805 3.6213613 5.813272
0.20766583 5.718689 5.5621214 0.44678956 1.9603144 0.1705857 2.3741002 6.234654

output.weight f4 [2, 4]
00000000: 2313 8c3e 79d5 ff3e 420e fe3e bca4 65be
00000010: d47f 75be 42f4 20bf b304 acbe 948f a5be
0.2735835 0.49967554 0.49620253 -0.22426122 -0.23974544 -0.6287271 -0.33597335 -0.32336104

output.bias f4 [2]
00000000: 8213 7d3e 2505 663e
0.24714473 0.224629
